…
To enable them in other operations, rebuild TensorFlow with the appropriate compiler flags.
2021-11-17 20:33:20.990253: I tensorflow/compiler/mlir/mlir_graph_optimization_pass.cc:185] None of the MLIR Optimization Passes are enabled (registered 2)
Found 8513 files belonging to 18 classes.
Using 6811 files for training.
Found 8513 files belonging to 18 classes.
Using 1702 files for validation.
Model: "sequential"
_________________________________________________________________
Layer (type)                 Output Shape              Param #   
=================================================================
conv2d (Conv2D)              (None, 142, 254, 32)      896       
_________________________________________________________________
max_pooling2d (MaxPooling2D) (None, 71, 127, 32)       0         
_________________________________________________________________
conv2d_1 (Conv2D)            (None, 69, 125, 64)       18496     
_________________________________________________________________
max_pooling2d_1 (MaxPooling2 (None, 34, 62, 64)        0         
_________________________________________________________________
conv2d_2 (Conv2D)            (None, 32, 60, 64)        36928     
_________________________________________________________________
max_pooling2d_2 (MaxPooling2 (None, 16, 30, 64)        0         
_________________________________________________________________
conv2d_3 (Conv2D)            (None, 14, 28, 64)        36928     
_________________________________________________________________
max_pooling2d_3 (MaxPooling2 (None, 7, 14, 64)         0         
_________________________________________________________________
conv2d_4 (Conv2D)            (None, 5, 12, 64)         36928     
_________________________________________________________________
flatten (Flatten)            (None, 3840)              0         
_________________________________________________________________
dense (Dense)                (None, 64)                245824    
_________________________________________________________________
dense_1 (Dense)              (None, 18)                1170      
=================================================================
Total params: 377,170
Trainable params: 377,170
Non-trainable params: 0
_________________________________________________________________
Epoch 1/3
  1/213 [..............................] - ETA: 14:02 - loss: 19.1786 - binary_accuracy: 0.0278 - categorical_accuracy: 0.0000e+00 - accuracy: 0.1562
…
