…
To enable them in other operations, rebuild TensorFlow with the appropriate compiler flags.
2021-11-17 00:47:49.708322: I tensorflow/compiler/mlir/mlir_graph_optimization_pass.cc:185] None of the MLIR Optimization Passes are enabled (registered 2)
Found 8513 files belonging to 18 classes.
Using 6811 files for training.
Found 8513 files belonging to 18 classes.
Using 1702 files for validation.
Model: "sequential"
_________________________________________________________________
Layer (type)                 Output Shape              Param #   
=================================================================
conv2d (Conv2D)              (None, 358, 638, 32)      896       
_________________________________________________________________
max_pooling2d (MaxPooling2D) (None, 179, 319, 32)      0         
_________________________________________________________________
conv2d_1 (Conv2D)            (None, 177, 317, 64)      18496     
_________________________________________________________________
max_pooling2d_1 (MaxPooling2 (None, 88, 158, 64)       0         
_________________________________________________________________
conv2d_2 (Conv2D)            (None, 86, 156, 64)       36928     
_________________________________________________________________
flatten (Flatten)            (None, 858624)            0         
_________________________________________________________________
dense (Dense)                (None, 64)                54952000  
_________________________________________________________________
dense_1 (Dense)              (None, 21)                1365      
=================================================================
Total params: 55,009,685
Trainable params: 55,009,685
Non-trainable params: 0
_________________________________________________________________
Epoch 1/5
  1/213 [..............................] - ETA: 1:05:12 - loss: 50.8746 - accuracy: 0.0312
…
