Found 8513 files belonging to 18 classes.
Using 6811 files for training.
Found 8513 files belonging to 18 classes.
Using 1702 files for validation.
Model: "sequential"
_________________________________________________________________
Layer (type)                 Output Shape              Param #   
=================================================================
conv2d (Conv2D)              (None, 142, 254, 32)      896       
_________________________________________________________________
max_pooling2d (MaxPooling2D) (None, 71, 127, 32)       0         
_________________________________________________________________
conv2d_1 (Conv2D)            (None, 69, 125, 64)       18496     
_________________________________________________________________
max_pooling2d_1 (MaxPooling2 (None, 34, 62, 64)        0         
_________________________________________________________________
conv2d_2 (Conv2D)            (None, 32, 60, 64)        36928     
_________________________________________________________________
flatten (Flatten)            (None, 122880)            0         
_________________________________________________________________
dense (Dense)                (None, 64)                7864384   
_________________________________________________________________
dense_1 (Dense)              (None, 18)                1170      
=================================================================
Total params: 7,921,874
Trainable params: 7,921,874
Non-trainable params: 0
_________________________________________________________________
  1/213 [..............................] - ETA: 13:41 - loss: 28.4405 - accuracy: 0.0938  2/213
…
